Model: "sequential"
_________________________________________________________________
Layer (type)                 Output Shape              Param #   
=================================================================
conv2d (Conv2D)              (None, 148, 148, 32)      896       
_________________________________________________________________
max_pooling2d (MaxPooling2D) (None, 74, 74, 32)        0         
_________________________________________________________________
conv2d_1 (Conv2D)            (None, 72, 72, 64)        18496     
_________________________________________________________________
max_pooling2d_1 (MaxPooling2 (None, 36, 36, 64)        0         
_________________________________________________________________
conv2d_2 (Conv2D)            (None, 34, 34, 64)        36928     
_________________________________________________________________
max_pooling2d_2 (MaxPooling2 (None, 17, 17, 64)        0         
_________________________________________________________________
conv2d_3 (Conv2D)            (None, 15, 15, 32)        18464     
_________________________________________________________________
max_pooling2d_3 (MaxPooling2 (None, 7, 7, 32)          0         
_________________________________________________________________
conv2d_4 (Conv2D)            (None, 5, 5, 32)          9248      
_________________________________________________________________
max_pooling2d_4 (MaxPooling2 (None, 2, 2, 32)          0         
_________________________________________________________________
flatten (Flatten)            (None, 128)               0         
_________________________________________________________________
dense (Dense)                (None, 512)               66048     
_________________________________________________________________
dropout (Dropout)            (None, 512)               0         
_________________________________________________________________
dense_1 (Dense)              (None, 4)                 2052      
=================================================================
Total params: 152,132
Trainable params: 152,132
Non-trainable params: 0
_________________________________________________________________
Found 500 images belonging to 4 classes.

 1/50 [..............................] - ETA: 23s - loss: 1.3600e-05 - acc: 1.0000
…
